mnist_model.pth (torch, 30768 bytes, 8 tensors)

conv1.weight f4 [5, 1, 5, 5]
000000 34 dd 2c be 48 30 f8 3d 49 03 28 3d af e4 c1 3e
       -0.16881257 0.12118584 0.041018758 0.37869784
000010 ed 38 22 3e 6e 9e 7a be 3f f3 5a bd 20 1b 66 3e
       0.15842028 -0.24474499 -0.053454634 0.22471285
000020 b2 1b d0 3e 6a 8f 36 3d fc ee ea 3c 23 f2 38 3d
       0.4064613 0.044570364 0.02867841 0.045152795
000030 f8 7d 54 3e a4 b5 97 3e fd 12 ba bd a8 5d e1 bd
       0.20751178 0.29630768 -0.09085653 -0.11004192
000040 1a 8b 90 3e 7c 15 87 3d b0 d5 86 3e 3b ce 0d be
       0.28231126 0.06595895 0.26334906 -0.13848202
000050 e0 e7 73 3e 54 09 84 b9 b7 15 21 3d 94 1b 57 3e
       0.23818922 -0.00025183952 0.03932735 0.21006614
000060 43 b4 4c be 8a 9f 1c 3e a0 6e 0a 3e 19 da 7a 3e
       -0.1999064 0.15295234 0.13518763 0.2449726
000070 c9 d7 7f bb 34 fb ac 3e 1a 5c a2 3d da 62 4f 3e
       -0.003903853 0.33785403 0.07927723 0.20252553
000080 19 05 9e 3e de 45 a4 3e 0f 8d ff bb e8 c2 fb bd
       0.30863264 0.32084554 -0.007798798 -0.12293035
000090 0a db 01 3e 1d be 3a 3d 2f 09 09 3e d1 ed b9 be
       0.12681213 0.045591462 0.1338241 -0.36314252
0000a0 5e ab c3 be e3 bc 94 be 3e 1d ca bd 04 44 0f bf
       -0.3821668 -0.2905036 -0.09868859 -0.5596316
0000b0 14 3d b9 be b8 7b c5 be 50 ce 00 bf 31 64 36 bf
       -0.3617941 -0.38570952 -0.5031481 -0.7124663
0000c0 39 f4 91 be 6f 62 aa 3c 16 81 a4 3d 0e 1d 90 bd
       -0.2850664 0.02079889 0.08032434 -0.07036792
0000d0 5b 22 02 3d 46 79 f6 be 2d 42 80 be c8 da 76 3e
       0.031771045 -0.481394 -0.25050488 0.24106896
0000e0 3b 2f 84 bd e7 eb 48 be 5b fe 2f bc cf e3 39 3e
       -0.06454321 -0.1962124 -0.010741795 0.18153308
0000f0 95 5b 38 3c 3b ba 85 bb c4 fd 0f 3e bd 12 0b 3f
       0.011252304 -0.0040810383 0.14061648 0.5432547
000100 36 1c 06 3f bb ce 6a bb 06 d4 34 3e 18 60 48 3e
       0.52386796 -0.0035828787 0.17659006 0.19567907
000110 0d 41 5b 3e f3 0c d4 3d e3 d4 43 3e bf cc 12 be
       0.21411534 0.10354032 0.19124179 -0.14335917
000120 1e 40 b1 be d0 cb 02 bf 84 2a 32 bd 28 02 9b 3e
       -0.3461923 -0.51092243 -0.043497577 0.30275083
000130 30 80 c8 3d 0e ff 4b 3e 44 e6 a4 bc 0a 72 f0 bd
       0.09790075 0.19921514 -0.02012933 -0.11740501
000140 12 dd c2 3e 33 d2 c7 3d 37 a3 4d bd a0 fe b6 be
       0.38059288 0.09756889 -0.050204482 -0.35741138
000150 45 96 94 3d 42 c8 11 3f 1a 38 e4 3c c7 36 2e be
       0.07255224 0.56946194 0.027858783 -0.17013083
000160 a1 04 32 bf 2e 67 ef bc 72 c5 a1 3e 18 a2 5c be
       -0.69538313 -0.029224005 0.3159595 -0.21546209
000170 49 d9 55 be fa 8c 0d bf 4c e9 1c 3d cc 5a 5c 3d
       -0.20883669 -0.5529324 0.038308427 0.05379753
000180 1a 19 92 be 52 3e 6d be 20 67 11 bf 95 03 05 3d
       -0.28534776 -0.23168305 -0.5679798 0.03247412
000190 6f da 82 3e 56 76 0d 3d 3d 75 ca 3d 5f 39 7f 3d
       0.25557277 0.034536682 0.09885643 0.062310573
0001a0 24 d4 1d be 1e 4c f6 3c cd 73 d7 3e fc df 8e 3e
       -0.15412956 0.030065592 0.42080536 0.27905262
0001b0 d2 b1 84 3e 4c 1c fc 3d 64 b6 90 bc e7 8b b3 3d
       0.25916916 0.12310085 -0.017665096 0.08766919
0001c0 01 d9 ae 3e 85 52 94 3e 40 58 9f 3e 44 b1 a8 be
       0.34149936 0.28969207 0.31122017 -0.32947743
0001d0 f5 9b 14 be cd 15 23 be d6 9d c1 3c 4a c3 52 3e
       -0.14512618 -0.15926285 0.023634832 0.2058231
0001e0 09 77 54 be 08 f5 ef be 58 d2 ac be 65 8b 88 be
       -0.20748533 -0.46866632 -0.3375423 -0.2666885
0001f0 fb ca d5 3c
       0.026097765

conv1.bias f4 [5]
000000 9f f7 6a be fe b3 6e 3d c9 1e f1 bc d1 5d 01 3e
       -0.22946022 0.058277123 -0.029433625 0.12633444
000010 f1 67 ec 3d
       0.11543263

conv2.weight f4 [5, 5, 5, 5]
000000 34 68 be 3e 44 a6 71 3e 3d 55 32 bd d2 af 25 be
       0.37188876 0.23598582 -0.04353832 -0.16180351
000010 52 ad 31 3c 10 d6 f0 3d ad f4 57 3e e6 4b ac 3b
       0.010844545 0.11759579 0.2108943 0.0052580712
000020 27 73 06 bd 30 04 ef bc 2e ef 48 3e 12 65 18 3e
       -0.03282466 -0.029176801 0.1962249 0.14882305
000030 12 4d e7 bd 8c ab 45 be e2 4b 2f 3d 32 6e c3 3d
       -0.11293997 -0.19303721 0.042796977 0.095425025
000040 79 13 0f 3d 4b 60 be bd 4c 59 da bd a4 14 03 be
       0.03493068 -0.0929571 -0.10661563 -0.12800843
000050 49 95 42 3d cc c3 18 3e 4a ef 36 3d 70 dc f8 39
       0.04750565 0.1491844 0.044661798 0.00047466485
000060 30 36 9b 3d 7b 1f 7b be b9 11 d6 be 0b 85 a5 be
       0.07578695 -0.24523728 -0.41810396 -0.32328066
000070 4a 91 a4 bd 71 94 13 3d 61 4a 9b be 9e 5c e8 be
       -0.08035524 0.036030237 -0.30330184 -0.4538316
000080 14 78 f5 bd 7b c9 c7 3d 54 a5 0c 3e 22 a1 40 be
       -0.11985794 0.09755226 0.13734943 -0.18811467
000090 83 41 c4 be ec 57 dc bc dc 67 e6 bd 3a b3 ae bc
       -0.3833123 -0.026897393 -0.11250278 -0.021325696
0000a0 46 7c b5 be 13 a4 17 be 4e 4d 1f bd 76 26 aa 3d
       -0.35446376 -0.14808683 -0.038892083 0.08308117
0000b0 b3 19 fc 3d 78 d4 35 bd 34 f7 f2 3d 60 00 57 3e
       0.12309589 -0.04439208 0.118635565 0.20996237
0000c0 88 45 68 3d 36 0f 91 3d a5 6c 7e bd 66 a6 77 bd
       0.056706935 0.070829794 -0.06211533 -0.060461424
0000d0 ff b0 16 3e 90 35 80 3d 2d 4a af bd 5a ce 56 be
       0.14715956 0.06260216 -0.0855907 -0.20977154
0000e0 82 de 40 bd 3d 1e 04 3e 9f 88 ad bc 0d 12 9d bd
       -0.0470872 0.1290216 -0.02118331 -0.076694585
0000f0 53 92 41 be 3b ce 72 bd 55 fd a3 bd 5f 64 18 be
       -0.18903475 -0.059278708 -0.080073036 -0.14882039
000100 7e c2 1e be 49 c8 9c bc c3 bb f8 3d e1 16 9e 3e
       -0.1550388 -0.019138472 0.12145188 0.3087683
000110 19 ae e4 3d 1d 3a e2 bd dd 9c d2 3d 03 7f 16 3e
       0.11166019 -0.110462405 0.102838255 0.14696889
000120 a7 bc 82 3e 39 bc 86 3e 0a 31 4f 3e ee e6 28 3e
       0.25534555 0.26315477 0.2023355 0.16494343
000130 f3 07 2c 3e 4b 78 2f 3e b2 83 02 3e 6d 6d 14 3e
       0.16799907 0.17135732 0.1274555 0.14494868
000140 e8 17 09 3d 4f 40 63 3e 9d 40 cf 3e 41 0f 93 3e
       0.033470064 0.221925 0.40478984 0.28722575
000150 6e 88 84 3e 83 99 b0 3c 26 39 41 3e 65 46 ad 3e
       0.25885338 0.021557575 0.18869457 0.3384277
000160 25 71 08 3e 1d c5 86 3e a5 b8 87 bd 3e 57 94 bd
       0.13324411 0.2632226 -0.06627015 -0.072432026
000170 1c cf ca bd c2 09 03 be a3 d8 18 3e 99 6c 3f bd
       -0.09902784 -0.12796691 0.1492639 -0.046734426
000180 00 c0 21 be f6 eb 67 be a1 97 1f be d4 0e 1d be
       -0.15795898 -0.22648606 -0.15585186 -0.15337688
000190 60 c3 f3 3d 51 95 98 bd 30 cf a3 be 14 7d 1d be
       0.11902499 -0.07450355 -0.3199401 -0.15379745
0001a0 e5 60 e3 bd f4 c1 0e bd 24 8e 9d bd bf 22 26 be
       -0.111024655 -0.034852937 -0.07693127 -0.16224192
0001b0 bf f7 87 bc f9 79 0e bd 52 0f 5e be 9b c6 56 3d
       -0.016597627 -0.03478429 -0.21685532 0.0524355
0001c0 7c fc aa be 7b 84 12 be 7f 06 8f bd 23 0b 1d be
       -0.33395755 -0.1430835 -0.06983661 -0.1533628
0001d0 69 05 bc bc af 1f 3c 3d bf 8f 60 bd e1 11 f0 bd
       -0.022951799 0.045928653 -0.054824587 -0.1172216
0001e0 96 99 b9 bc 27 0d 14 3e cf ef 14 3e c4 d3 13 3e
       -0.022656243 0.14458142 0.14544605 0.14436251
0001f0 a2 ff e1 bb 03 2d 6d 3b 76 dc 18 bd 06 4d c1 3d
       -0.006896929 0.003619016 -0.037319623 0.09438519
000200 50 7c 90 3e 60 11 9a 3c bf 31 37 be 3c e8 82 3d
       0.28219843 0.018807113 -0.1789007 0.063919514
000210 04 83 be 3e 5a 9d b6 3e c7 48 3c bd 7e a1 56 bd
       0.37209332 0.35666925 -0.045967843 -0.052400105
000220 04 93 4d 3e c8 7c 45 3e c6 8d ca bc 42 fa 9d bd
       0.20075613 0.19285882 -0.024725806 -0.077137485
000230 34 cc cf 3d 0e 25 04 bb 98 e8 04 be 82 4a 98 be
       0.101463705 -0.0020163688 -0.12979352 -0.29744345
000240 2d 54 16 be 1d fd 8f 3a 42 c7 12 be 36 52 09 be
       -0.14680548 0.0010985468 -0.14333823 -0.13410267
000250 e1 44 ab bd e8 af 49 bd 6f 6c 2b 3e fc ce 42 3e
       -0.08362747 -0.049240023 0.16740583 0.19024271
000260 33 e5 5f 3e bd 3c 70 bb 19 f6 fc 3c 25 ed 60 3e
       0.21864776 -0.0036657297 0.030879067 0.21965463
000270 57 3c e8 3d e6 c1 bc be 92 d3 07 be 8d 82 82 3c
       0.11339634 -0.36866683 -0.13264301 0.015931392
000280 8f f9 08 be 4b fe bf be 8e e3 9f be a0 0b 22 be
       -0.13376449 -0.37498698 -0.31228298 -0.15824747
000290 dc e4 3e 3d 49 c3 da be 51 dc af be a0 4c a9 be
       0.046604976 -0.42727116 -0.34347776 -0.33066273
0002a0 fe 24 7b 3d a6 68 5f 3e 15 3c c8 be 16 b1 6e be
       0.061314575 0.21817264 -0.3910834 -0.2330974
0002b0 4e 8d 43 bd 5d db a5 bd d3 9e 8c bd 16 e5 38 3e
       -0.04774218 -0.08098481 -0.06866231 0.1805614
0002c0 70 a1 56 be d5 cb 6f bd 5a 71 9b 3e 1d 8f ba 3e
       -0.20960021 -0.058544 0.30359918 0.36437312
0002d0 ab b8 b5 3c ed 12 11 3e 46 0e e1 3e 17 69 c2 3e
       0.022182783 0.14167376 0.43956202 0.37970802
0002e0 b5 72 7e 3e 54 f5 ca 3d 3f 4f 5c 3e 63 6b 91 3e
       0.24848445 0.09910074 0.21514605 0.28402242
0002f0 b6 68 b6 3e 23 70 27 3e 41 73 49 bd 3d d7 20 3e
       0.35626763 0.1635137 -0.04918218 0.15707107
000300 f9 e9 54 3e db 08 57 3e fc 33 2e bc ca 55 1a be
       0.20792378 0.20999472 -0.010632511 -0.15071788
000310 94 ca 49 3d eb 79 3a 3e fd 91 52 3e f9 d8 4f 3d
       0.04926546 0.1821057 0.20563503 0.05074403
000320 66 ee c2 3e 0d 59 e8 bd 61 68 08 be 81 e9 1d be
       0.3807251 -0.1134511 -0.13321067 -0.15421106
000330 c5 d0 6b bc a1 e8 b6 bb 5a 94 80 be 57 db 96 bd
       -0.014393036 -0.0055819307 -0.25113183 -0.073660545
000340 42 c7 c0 3d 7c 39 26 3e 6e 71 73 be 0f e7 dd 3d
       0.094130054 0.16232866 -0.23773739 0.108350866
000350 25 60 01 3e 6c 4d 88 3d de 1f 81 bd 00 7a df bd
       0.12634332 0.06655392 -0.06304906 -0.109119415
000360 2e 6e 8b 3b 29 65 83 be 73 86 a3 be 22 4e 2e be
       0.004255078 -0.25663117 -0.31938514 -0.17021993
000370 8c 24 47 bd 5c 41 dd bd 05 d8 b2 be d0 7c 4c be
       -0.04861884 -0.10803482 -0.34930435 -0.19969487
000380 26 94 3a bc b4 04 7f 3d 51 9f 83 be 68 e9 ae be
       -0.01138786 0.062260345 -0.25707486 -0.3416245
000390 42 24 85 be 88 a7 5c 3e 03 45 58 3c cc 66 c2 be
       -0.26004225 0.21548283 0.013200047 -0.37969053
0003a0 94 9c 97 be 7c 90 6e bd af a4 6c 3e 31 e9 e9 bd
       -0.29611647 -0.05824326 0.23109697 -0.11421431
0003b0 7b a5 1c be 1c 1e b8 bb 55 4a 94 3d 63 4b 8f 3c
       -0.15297501 -0.0056188237 0.0724074 0.017492002
0003c0 6d e1 78 3d 18 50 2f 3e f4 7e 4b 3e 68 2d 80 3e
       0.060761858 0.17120397 0.19872648 0.25034642
0003d0 2a 45 17 be b9 fa 0a be 6a 82 5d 3d d2 b3 7a 3d
       -0.14772478 -0.13572206 0.05407945 0.061206646
0003e0 e7 65 03 3c 67 e1 33 bd 94 46 90 3d 3c 37 b2 3d
       0.008019901 -0.043916132 0.07044712 0.08701941
0003f0 55 03 db bd 26 25 1d be 87 12 5c bd ba 3a fd 3d
       -0.10693995 -0.15346202 -0.053728607 0.12364717

conv2.bias f4 [5]
000000 5e c5 1a 3d 28 3a 2d 3d a2 e1 2c bd 93 41 48 bd
       0.03778588 0.04229179 -0.042207368 -0.04889066
000010 41 8f 4e 3d
       0.050429586

conv3.weight f4 [10, 5, 5, 5]
000000 20 d4 54 be b8 18 41 be e6 a9 66 be 2e 45 6f be
       -0.20784044 -0.18857086 -0.22525749 -0.23366234
000010 00 eb 4a bc e6 a2 26 3e 66 e3 bc 3d ef ac d5 bc
       -0.01238513 0.16273078 0.0922306 -0.026083438
000020 cf 40 b2 3d bd a5 8f 3d c0 11 2d 3e 5a a5 10 be
       0.087037675 0.07014034 0.16901302 -0.14125577
000030 1b 3d 11 be ca 57 28 be 67 94 10 3e 11 6b e2 3d
       -0.14183466 -0.16439739 0.14119111 0.110555775
000040 05 b0 12 be 07 0a c1 be 70 20 b1 be 86 9e fb 3d
       -0.14324959 -0.37702963 -0.3459506 0.12286095
000050 a2 39 03 3c 73 2e 37 be e4 ee 99 be 3a 5a 42 3d
       0.008009346 -0.17888813 -0.30065072 0.047449328
000060 59 24 8b 3c b8 cd 9d 3d b8 77 bf 3d 76 d7 4e be
       0.016985105 0.07705253 0.093490064 -0.2019938
000070 92 4f 89 be bb b4 1b 3e 1f 9b 9d 3d 7b 45 88 3d
       -0.2681852 0.15205662 0.076956026 0.06653877
000080 33 b2 21 3e f5 28 c2 3e d9 2e e3 3d 0e 3c ec bc
       0.15790634 0.37921873 0.1109292 -0.02883723
000090 b0 7b cd bd 52 08 7d bd b1 8d f0 3d d2 43 73 bd
       -0.10033357 -0.061775513 0.117457755 -0.05939085
0000a0 46 5a f8 bd 4a 17 fa 3c 4d e5 55 bd 5c b4 1d be
       -0.12126593 0.030528683 -0.05222063 -0.15400833
0000b0 2f 99 1f be 76 36 be 3d ee 39 e9 bd 19 a9 ae 3d
       -0.15585779 0.09287731 -0.11388002 0.085283466
0000c0 0c b4 c5 3e fb cf 9f bc 43 de 23 bd 42 5c 6c 3d
       0.38613927 -0.019508353 -0.040006887 0.05770517
0000d0 5c 83 2e 3c 0f 48 44 be fe 63 85 bd c4 96 12 be
       0.010651436 -0.19168113 -0.065132126 -0.14315325
0000e0 cd 66 87 3d 91 77 7b 3d 72 5f 26 be bd 36 8f 3d
       0.066114046 0.061393324 -0.16247347 0.069928624
0000f0 c4 ee 02 3e 7a 28 4f 3e e4 ba a2 3b 9a d6 35 bc
       0.12786394 0.20230284 0.0049661268 -0.011098528
000100 f8 3c 62 bd f0 2e 9b bd 8d c3 05 bd fc 11 a9 bd
       -0.055233926 -0.07577312 -0.032657195 -0.08255383
000110 c1 cc 0c 3e c4 61 30 bd 16 22 ac bb 40 19 ee 3d
       0.13749982 -0.043061987 -0.005253087 0.1162591
000120 8c 98 b8 3d b7 d5 b6 3c 80 ab a4 bd 68 62 b4 bd
       0.09013471 0.022318704 -0.080405235 -0.08807832
000130 ed 4b 54 bd af b1 4e 3d 40 e4 c7 bd 09 71 3d be
       -0.05183022 0.05046242 -0.09760332 -0.1850015
000140 2a 50 f1 bb 66 76 0e 3d 4c 9a 16 be 93 88 be bc
       -0.0073642926 0.034780882 -0.14707297 -0.023258483
000150 6c d0 4b 3c c3 2a ef 3d 04 a1 dd 3d b4 ff 53 3e
       0.012439828 0.11678078 0.10821727 0.20703012
000160 bd 9f c9 bc 40 2e 64 3d 66 46 24 3e b2 1b 21 3e
       -0.024612302 0.05570817 0.1604248 0.15733221
000170 f2 d9 b9 3d da 81 b1 bd f4 a7 52 be a2 b4 0d 3e
       0.09074773 -0.08667345 -0.20571882 0.13838437
000180 34 d8 2a 3e 7c 2e 0f 3e 78 d7 a0 3d d4 aa 24 3d
       0.16684037 0.13982576 0.078535974 0.040201977
000190 e4 e8 c0 bd 05 92 e6 bd f7 9b aa be 15 1b a9 be
       -0.0941942 -0.1125832 -0.33322117 -0.33028474
0001a0 7c b4 ad be c4 19 17 bd 8e eb 11 3e e4 cf 72 3e
       -0.3392676 -0.036889806 0.14250013 0.23712116
0001b0 cd 6e 8f 3e de 70 27 3e b9 01 7b 3d 4a 05 af 3d
       0.28014222 0.16351649 0.06128094 0.08545931
0001c0 84 6e 37 3e 2f 83 cf bc 3e 7f 39 be fb 09 78 bd
       0.17913252 -0.025331108 -0.18114945 -0.060556393
0001d0 1d ea 6b bd 4d b6 3e be 66 16 c0 be a8 3b a3 bb
       -0.057596315 -0.1862423 -0.3751709 -0.004981477
0001e0 81 ce 3c be 82 3e 8c be c2 9c b6 be c0 d7 41 be
       -0.1843815 -0.2739144 -0.35666472 -0.18929958
0001f0 0d ca 1c 3e 5d 9e 25 3e 4b 9a a0 3c 4f 44 b3 3c
       0.15311451 0.16173692 0.019604823 0.021883158
000200 b2 ac 8c bc ab a8 01 be f9 cb 46 3d 03 5e e3 3d
       -0.017172191 -0.12661998 0.048534367 0.11101916
000210 e6 e2 d4 3c 32 b6 14 be b7 ea 3e be 64 ea 02 3e
       0.0259871 -0.14522627 -0.18644224 0.12784725
000220 92 25 4f bd 98 4c 9a be 9b ae 6c be 7e 8c 3d be
       -0.05057294 -0.3013656 -0.23113482 -0.18510625
000230 e3 c7 bb bd ec 21 86 3c 4e ba 0e bd c1 82 28 3e
       -0.09168985 0.016373597 -0.034845643 0.16456129
000240 af 8c 83 3d fc 15 7e bd 4f 8f ab 3e 41 03 50 3e
       0.06423318 -0.062032685 0.33507773 0.20313741
000250 01 ef 34 3e 99 b9 68 3e 30 e8 57 bc d5 85 5b 3c
       0.17669298 0.2272705 -0.013177916 0.013398607
000260 c7 7a 0e 3e 89 28 28 3e 06 23 95 bd db f7 13 bc
       0.13914023 0.16421713 -0.07282071 -0.009031261
000270 0b 46 e5 3d 8a 9e 07 3e 99 3c f6 bd dc 15 b2 be
       0.11195 0.13244072 -0.12023277 -0.34782302
000280 34 44 c7 3d 31 b8 d3 bc ab 5c 9a be 36 2e ba be
       0.097298056 -0.025844665 -0.30148825 -0.3636338
000290 cb c2 c7 be 12 c1 c8 bd bf 0c 90 be 3d 84 b8 be
       -0.39015803 -0.0980245 -0.28134724 -0.3603839
0002a0 b1 ec 63 be ae 2a a7 3d d8 ff 8a be 4d bb 77 be
       -0.2225826 0.081624374 -0.27148318 -0.24192543
0002b0 fa d3 0d be 71 2d 01 bd b9 95 4e 3e 84 37 0a be
       -0.13850394 -0.031537477 0.20174302 -0.1349774
0002c0 5b 76 a0 be 60 d8 a0 be ed 95 4a 3d b2 b5 d9 ba
       -0.31340298 -0.3141508 0.049459387 -0.0016609936
0002d0 81 d2 17 be 94 dd 67 3d 03 41 0e 3e d5 82 75 3e
       -0.14826395 0.056607798 0.13891988 0.2397569
0002e0 fe a5 a4 3c 12 fe 67 bd 23 c7 46 3e 74 77 7b 3e
       0.020098682 -0.056638785 0.19411902 0.24557287
0002f0 db 1d 79 3e b5 de a5 3d b3 9e 9e 3d a2 c3 24 3d
       0.24327795 0.080991186 0.07745113 0.040225632
000300 79 d6 91 bd 45 2c 82 be 03 24 c6 bd 13 78 77 bc
       -0.071209855 -0.254244 -0.096748374 -0.0151043115
000310 f3 3c 0f 3d b8 f1 03 3d 93 c8 96 bd 1c f5 23 bd
       0.034970235 0.032212943 -0.07362475 -0.040028676
000320 0f 36 ed bc 86 53 f4 bd e0 66 85 be 77 93 5c 3d
       -0.028956441 -0.11929993 -0.2605505 0.05385157
000330 a8 c8 ff 3d ad 26 a8 be ed c2 84 bd c0 db 04 3e
       0.12489444 -0.32842007 -0.06482492 0.12974453
000340 e6 4b 0e 3e 71 78 dd 3d e2 21 67 bd 2e d8 cf bc
       0.1389614 0.10813988 -0.056428798 -0.025371637
000350 62 a2 0d 3d 56 fc 25 3e d8 ad ea b7 0d e3 89 3d
       0.03457869 0.1620954 -2.7975926e-05 0.067327596
000360 4a bc bf 3d f8 43 20 3d 22 b3 5a be de 8c 77 be
       0.09362085 0.03912732 -0.21357396 -0.2417483
000370 8f 9e 9f bd 14 6a be bd 0d f5 b4 bd 76 2d ce bd
       -0.077939145 -0.092975765 -0.08835802 -0.10067265
000380 80 ab 00 be 3d 68 36 3e c8 21 ed bd c3 1f 55 bd
       -0.12565422 0.17813201 -0.11578709 -0.052032243
000390 3b 06 8d 3d 6e bb a8 bc fa 2a 2a be ac 5d f9 bc
       0.06885954 -0.020597186 -0.16617957 -0.030440174
0003a0 f0 36 e8 3d 20 1f d0 3c a3 13 b5 3c 32 ff 9a 3d
       0.113386035 0.025405467 0.02210409 0.07568206
0003b0 99 f8 a9 3d 47 ef 27 3d 86 dd 65 be 66 72 a9 be
       0.08299369 0.040999677 -0.22447786 -0.33095092
0003c0 54 b5 02 3e 2c 73 59 be 1f be 86 be 22 3d d2 be
       0.12764484 -0.21235341 -0.26316926 -0.41062266
0003d0 37 27 37 be 6d d1 92 3d 65 d3 15 3e e6 c5 82 be
       -0.17886053 0.07168851 0.14631422 -0.2554161
0003e0 7d 3e 8f bd 0d d8 15 3e 58 fc 44 3e 85 e8 30 be
       -0.069943406 0.14633198 0.19236887 -0.17276199
0003f0 0a e5 6c bb a5 15 28 3d 18 02 28 3d 22 3e 24 3d
       -0.003614726 0.041036267 0.04101762 0.040098317

conv3.bias f4 [10]
000000 61 92 96 3d 25 a9 bc 3d 63 c1 90 3e 35 85 15 bd
       0.07352138 0.09211949 0.28272542 -0.03650399
000010 ab 10 07 be c7 2e ed 3d fb 21 bc bd 99 57 7b b9
       -0.13189952 0.11581188 -0.09186169 -0.00023969858
000020 34 2a 69 3e 8e eb 1a bd
       0.22770005 -0.0378223

fc1.weight f4 [10, 490]
000000 2d b1 f5 ba 20 70 06 3d 87 bb f9 bc 7b df 89 bd
       -0.0018744819 0.032821774 -0.030484928 -0.06732079
000010 67 9a b7 bc dc 66 29 bd 97 c7 80 3d ab 0b a0 3b
       -0.022412492 -0.04135786 0.06288069 0.0048842034
000020 07 0b 2d 3d 0e 08 36 bd c3 53 f8 bd 25 39 1e bd
       0.042246845 -0.044441275 -0.12125351 -0.038628716
000030 79 22 88 3d cb d3 66 3c 97 4b 6c bd 81 97 8a bc
       0.066472 0.014088581 -0.057689276 -0.016917946
000040 34 f6 c2 be d3 f7 16 be b4 a9 1b 3e b9 c0 ea 3d
       -0.38078463 -0.14742975 0.15201455 0.1146254
000050 52 55 02 bf a1 b7 99 bc 77 ef 45 be 59 3e 2e be
       -0.5091144 -0.018764319 -0.1932963 -0.17015971
000060 62 c7 cb bc e1 b3 16 3e 2e de c1 bd f1 47 b5 be
       -0.024875347 0.14717056 -0.094662055 -0.3540645
000070 fd ec d9 3d 75 5e 9a 3c ba d4 b6 bd f2 11 42 be
       0.10640905 0.018843869 -0.08927293 -0.18952158
000080 ef 29 5f bb 36 8b ca 3d ab f0 72 3d 27 90 29 3d
       -0.0034052094 0.09889834 0.05931155 0.04139724
000090 84 9c 85 bd dc 19 ff bd 9f 44 ed 3d d0 bf 0b 3e
       -0.065239936 -0.12456104 0.11585354 0.1364739
0000a0 8d 37 a0 3d 17 b9 44 3c c4 e1 13 3d 02 12 57 be
       0.078230955 0.0120070195 0.03610398 -0.21002963
0000b0 32 cf fb 3d f5 28 f7 3d 1b 98 8e 3c 6e 25 bb 3d
       0.12295379 0.12068359 0.017406514 0.091379985
0000c0 eb c0 d5 3d 69 0a 9d bd 50 dd 1c 3b 2d a9 21 3d
       0.10437187 -0.07668001 0.0023935623 0.03946798
0000d0 64 58 37 be 14 48 86 bc 5f 4f 44 3d 30 4f e0 3c
       -0.17904812 -0.016391791 0.047927257 0.02738151
0000e0 9b fb 38 3d 16 1f 00 3e ac 8e 76 be 78 cb 58 bd
       0.045161825 0.12511858 -0.24077863 -0.052928418
0000f0 24 f4 33 3e d8 ec ea ba ce 83 dc 3d 31 cd 78 3e
       0.17573601 -0.0017923368 0.10767327 0.24297024
000100 e2 c1 10 ba 22 1d 48 3e 03 f0 30 3d f0 77 e1 3d
       -0.0005522055 0.19542363 0.043197643 0.110092044
000110 0e 1e 01 bd f1 59 0a bd 41 be cc bd 75 3a d4 bd
       -0.031522803 -0.03377718 -0.099972256 -0.10362712
000120 5b 1f e2 3b d8 59 d6 3d 14 bf 72 3d 23 08 ab be
       0.0069007105 0.10466355 0.059264258 -0.33404645
000130 6e 89 84 be ae 0d 0d bf de 68 d4 be e5 5e 49 be
       -0.258861 -0.55099 -0.41486257 -0.19665106
000140 0c 97 63 be 84 67 5c be 9d a9 ac be 89 9b 59 be
       -0.22225589 -0.21523863 -0.33723155 -0.21250738
000150 03 44 82 bd 4e f4 e5 3c 0e 13 f2 3d a5 c5 95 3c
       -0.063606285 0.028070595 0.11820041 0.01828272
000160 7a f3 e8 bd 18 a6 64 3d 16 77 43 3d b8 b3 8b 3c
       -0.113745645 0.05582246 0.04772099 0.01705347
000170 be c7 ba 3c 55 a1 0e 3d 23 70 94 3d fe 28 3d 3d
       0.022800323 0.034821827 0.07247951 0.04618167
000180 ac bd ad 3d d5 2f fd be fc 8c 51 bd 93 2e 09 bd
       0.08483443 -0.49450555 -0.051159844 -0.033491682
000190 21 70 46 3d f0 9c e1 bc f8 39 60 be ea f7 81 be
       0.04844678 -0.027540654 -0.21897113 -0.25384456
0001a0 74 86 8e be 3b 3d b0 be c4 df 9a 3d eb 5f 5d 3d
       -0.27836955 -0.34421715 0.07562211 0.054046553
0001b0 c0 0f 03 be 17 4b 19 be 7a e2 40 be 5a 3e 4a be
       -0.12798977 -0.14970051 -0.18836394 -0.19750348
0001c0 87 b6 33 bd 82 24 9a 3c 62 3d fe 3c 2a 18 0e bf
       -0.043875244 0.018816236 0.031035129 -0.5550562
0001d0 90 6a 43 bd 69 ac 33 3d 10 09 9a bd cf 7a 85 3d
       -0.047709048 0.043865595 -0.0752126 0.065175645
0001e0 44 cc 83 3d 98 e8 b1 be c7 05 77 be 4c 99 f7 3d
       0.06435445 -0.34747767 -0.24123298 0.12089786
0001f0 65 57 cd bd db 9f 48 bb 6b 9b ad 3d eb 44 a5 3d
       -0.10026435 -0.003061286 0.08476909 0.08069786
000200 81 c0 01 3e 1c ce 03 3d f0 1a a4 3d 25 08 a5 bd
       0.1267109 0.032178983 0.080129504 -0.08058194
000210 4c bb 6f 3c 8e 35 22 3e 38 87 33 be c2 66 05 be
       0.014632057 0.15840742 -0.1753205 -0.1302748
000220 f2 a7 bd 3d 65 a5 86 bd 72 02 ec 3d 76 ed a5 bd
       0.09260549 -0.06574515 0.11523904 -0.08101933
000230 ee fc 3b 3d 8f d4 45 bf 68 e2 39 bf 4c 13 b3 be
       0.04589551 -0.77277464 -0.72611094 -0.3497566
000240 df 09 9d bd 2b 34 ca 3d 9e b0 7d bf c5 db 2a bc
       -0.076678984 0.098732315 -0.9909762 -0.010428374
000250 41 3c 07 3d 7b 17 11 3e d7 18 95 3d 48 5e 4c 3d
       0.033016447 0.14169113 0.072801284 0.0498946
000260 af 60 db bb 9b f6 39 bd b5 3e 65 be 48 26 96 3d
       -0.006694875 -0.045401197 -0.22387202 0.0733152
000270 78 1f 0f be ad 86 da be f1 9c c8 bd b7 e5 e6 3d
       -0.13976848 -0.42680874 -0.09795559 0.112742834
000280 3f 89 a3 3d ae c6 0f be 49 13 db bd b1 45 3a 3e
       0.07985162 -0.14040634 -0.10697038 0.18190648
000290 e2 86 37 3e ca d7 4f bf eb 3a 74 be cf 0f 6c 3d
       0.17922547 -0.8118864 -0.238506 0.057632264
0002a0 3c 86 92 bd 60 c5 4e be 7c b2 b4 3c 32 46 13 3e
       -0.071545094 -0.2019248 0.022057764 0.14382246
0002b0 69 f2 99 be 5e 3a 83 be 8d f5 b4 bd a0 fa 3e bc
       -0.30067757 -0.25630468 -0.088358976 -0.011656433
0002c0 a5 b6 46 be 99 c9 54 be 7a 0f 68 bc bf 97 25 3d
       -0.19405611 -0.20780028 -0.014163846 0.04042792
0002d0 0a ae cc bd 46 f3 f8 bd 2e 7f 48 3d 89 88 34 be
       -0.09994133 -0.12155776 0.048949413 -0.17630209
0002e0 14 09 3f bf 31 e4 8d be b4 5d d2 bc b9 39 cd be
       -0.7462323 -0.2771316 -0.025679447 -0.400831
0002f0 a3 11 4a bf a2 a2 55 3d 3d b7 63 bd 54 42 3d be
       -0.7893316 0.05215705 -0.05559467 -0.18482333
000300 33 f3 d0 bd ae 1f 1d 3e 5a ed 91 3e 5d 7d ec 3d
       -0.102026366 0.15344116 0.28501397 0.11547349
000310 ed 1b 77 bd 25 71 10 be 5e 1a b5 be cb 5c 02 be
       -0.060329366 -0.14105661 -0.3537168 -0.1273071
000320 49 03 ca bd 58 3b 6c be ee af 08 bf 90 3e 65 bd
       -0.09863908 -0.23069513 -0.5339345 -0.055967867
000330 bb d9 8e bc 38 30 b2 3c 47 71 38 bd 23 9c fe be
       -0.017437806 0.021751508 -0.045029905 -0.49728498
000340 14 08 7f be 1a 2f 8b 3d e7 a0 e1 bd 06 90 68 bc
       -0.24905425 0.06796093 -0.11017018 -0.014194494
000350 06 fc 9a 3d ff 24 97 3d ee bf 97 bd 8a ee f2 3c
       0.07567601 0.07380103 -0.074096546 0.02965476
000360 7c d5 d5 3d db 4c c6 be c6 09 fa bc 81 f7 12 be
       0.104411095 -0.3873051 -0.030522238 -0.14352228
000370 00 23 22 be ca 2f b1 bd 80 4d 95 3d 3e 4d 09 bd
       -0.15833664 -0.08651693 0.072901726 -0.03352093
000380 aa cf 8d 3c ed 1b b6 bd bc 29 0a bf f9 55 94 be
       0.017310936 -0.08892045 -0.5396993 -0.28971842
000390 7a fa 41 bd 72 69 95 bd 21 00 b2 be ac 31 ba bc
       -0.047358014 -0.07295503 -0.34765723 -0.022728764
0003a0 62 64 c1 3d 61 d4 a8 3d 85 d0 62 bc b9 bf 10 3d
       0.094429746 0.08243633 -0.01384366 0.03533909
0003b0 5c eb 67 be 26 12 b5 bd bd 76 99 be 68 0b c6 3c
       -0.22648376 -0.08841352 -0.29973403 0.02417536
0003c0 aa 62 8c 3c 52 a7 e7 3c b8 8c 6f bc 1e 9c 02 bd
       0.01713689 0.028278027 -0.014620952 -0.031887166
0003d0 84 79 18 3e 57 7c aa be 50 15 a0 3c 16 ac 0c bd
       0.14890105 -0.3329799 0.019541413 -0.0343438
0003e0 6c 53 6a bd 3c 76 39 bd e0 44 8f 3c 85 17 37 3e
       -0.057208464 -0.045278773 0.017488897 0.17880066
0003f0 8f 03 ca bd fd 66 c9 3c 45 32 39 bd cc 77 13 be
       -0.0986396 0.024585241 -0.045213956 -0.14401168

fc1.bias f4 [10]
000000 5e e0 8b bd 13 58 12 3d 00 b6 58 be 32 f1 74 bd
       -0.06829904 0.035728525 -0.21163177 -0.059800334
000010 ba 9c 7b 3d 57 3a 0e bd 56 4b 31 be e0 0d eb 3d
       0.061428763 -0.034723606 -0.17313895 0.11477256
000020 e5 8f 7e 3e aa 29 02 be
       0.24859579 -0.12711206
