mnist_model.pth (torch, 34813 bytes, 20 tensors)

conv1.weight f4 [5, 1, 5, 5]
000000 4c 28 09 3c 88 a2 c8 3c d3 a6 d5 bd 70 fc 65 bd
       0.008371424 0.024491563 -0.1043221 -0.056148946
000010 0e b5 95 be 70 74 14 3e 2d 87 a0 bd 5d bb 16 3e
       -0.29239696 0.14497542 -0.07838283 0.14719911
000020 e7 51 09 3e 88 1d 8a 3d 05 3d cd 3d b2 fc d4 bc
       0.1341015 0.06743914 0.10021404 -0.0259994
000030 9c ea 51 bd 04 eb 0e 3e 98 19 98 3e b2 56 20 be
       -0.05124913 0.13956839 0.29707026 -0.15658072
000040 a5 47 9e 3e ad bc 15 3d 0d 3c a9 3d 3c 20 bc 3d
       0.30914035 0.03655689 0.08263407 0.09185836
000050 ec 94 61 3e a8 a6 bb 3d 1f 57 fb 3d fe 19 a0 3d
       0.22029465 0.091626465 0.122724764 0.078174576
000060 3a a6 d8 bc 6b 3e be bd 73 3d 25 3d 1f f8 34 be
       -0.02644645 -0.09289249 0.040341806 -0.17672776
000070 21 d6 9b bc 9b 85 d2 3d 48 b5 cc bd 11 6a aa be
       -0.019023003 0.102793895 -0.09995514 -0.33284047
000080 d5 95 1e bd ad 8c 06 3c c6 58 51 3e 3e d6 8e be
       -0.03871711 0.008212251 0.2044402 -0.2789783
000090 a4 d0 fe bd 53 d9 92 3c 2c 3b cd 3d c6 72 85 3e
       -0.12442139 0.017925894 0.10021052 0.26064128
0000a0 0e b3 30 be ac 91 42 be dc c7 04 3d bd 47 06 3e
       -0.17255804 -0.19000882 0.032417163 0.13113303
0000b0 a1 50 82 3e 09 14 1a be 08 ff 2a be c2 e1 1f 3e
       0.2545214 -0.15046705 -0.16698849 0.15613464
0000c0 bc 13 66 bd 53 bb 38 3e a9 40 e2 3c b2 43 70 bd
       -0.056171164 0.18040209 0.027618723 -0.05865831
0000d0 4b f7 62 be 62 5d 85 be 97 5c 6e be 0e e9 54 be
       -0.22164647 -0.26047808 -0.23277508 -0.20792028
0000e0 3c 3d b2 be 40 2d a6 be bf 51 de bd 7e 78 e4 bd
       -0.34812343 -0.32456398 -0.108554356 -0.111557946
0000f0 e1 f0 43 be ec cf 4a be 96 d2 26 3e 6b 49 15 3e
       -0.19134857 -0.19805878 0.1629127 0.14578788
000100 7c 41 cb 3d 2a 30 e3 bd f1 d9 1e 3d 5b 67 6e 3d
       0.099245995 -0.11093171 0.038782064 0.058204036
000110 d0 93 c6 3d da fd fe 3d 8e dc e0 3c 33 24 07 bd
       0.09696162 0.12450762 0.027448919 -0.032993507
000120 56 fc c5 3d 7c 4b 5a bc b7 07 ab bc 57 2f b3 bc
       0.0966727 -0.013323661 -0.020877702 -0.02187316
000130 a5 ff 32 bd e8 f3 2c 3e 2d de ad 3d 90 1f 4f 3e
       -0.043700833 0.16889918 0.08489642 0.20226884
000140 9c 8f 66 3e ac a3 8c 3e cc 0f 92 ba 6d e4 bb 3d
       0.2251572 0.27468622 -0.0011143624 0.09174428
000150 91 7e eb bb 0b 90 c4 3d f2 31 a0 3d ba 17 eb 3c
       -0.0071867188 0.095977865 0.07822026 0.028697837
000160 36 58 22 be e7 5b 3f be 9d 2b 84 be b3 12 a8 be
       -0.15853962 -0.18687402 -0.25814524 -0.32826766
000170 99 e1 6e be 92 83 2f be c6 9f 14 3e 4e c4 33 3c
       -0.23328246 -0.17140034 0.14514074 0.010972096
000180 a9 a6 04 bd 43 8a 1b 3e db 76 f9 3d d1 c3 9a bd
       -0.032385502 0.15189461 0.12180873 -0.0755688
000190 be d8 37 3d 96 13 0d 3e 80 e8 28 be 5e 61 71 be
       0.044884436 0.13777003 -0.16494942 -0.23572299
0001a0 a2 76 e0 bd 35 cc a6 3d b9 fd 51 3e 58 7a 27 3e
       -0.109601274 0.08144418 0.20506944 0.16355264
0001b0 bb ee a8 3d 78 5f 89 bc e4 fb 0b be 8c 02 16 3e
       0.08248659 -0.016769156 -0.13670307 0.14649409
0001c0 df e2 a1 3e c3 59 29 3e a4 51 58 3b a3 82 2f be
       0.316184 0.16538148 0.0033007646 -0.17139678
0001d0 c4 db 4e be 69 9f 92 3c bc 06 76 3d e6 18 2c 3e
       -0.20201021 0.017898278 0.060065016 0.16806373
0001e0 69 f8 33 be f1 6e f7 bd 9c 2b 0a be 81 f1 91 bd
       -0.1757523 -0.12081707 -0.13493198 -0.07126141
0001f0 b4 ef 77 3d
       0.060531333

conv1.bias f4 [5]
000000 68 b7 a9 bd db 29 1e bd a4 25 4d bd b8 f0 66 3e
       -0.08286935 -0.038614135 -0.050084725 0.22552764
000010 25 19 be be
       -0.3712856

bn1.weight f4 [5]
000000 65 35 80 3f 3a 52 8b 3f c4 fd 80 3f 22 a5 7c 3f
       1.0016295 1.0884469 1.0077443 0.9868947
000010 9f a3 69 3f
       0.9126529

bn1.bias f4 [5]
000000 0b 4b cc 3c da f5 ec 3d 53 57 32 3c f5 06 4e 3c
       0.024938127 0.1157033 0.0108850775 0.012574901
000010 9c 0d 28 3d
       0.041028604

bn1.running_mean f4 [5]
000000 92 c8 c5 3e f5 70 c4 3e 5c 8f e4 3e da 5f b6 3e
       0.38629586 0.3836743 0.44640625 0.35620004
000010 06 f4 e3 3d
       0.11130528

bn1.running_var f4 [5]
000000 f0 dd 2d 3f cf c0 14 3f 16 89 1c 3e f5 5d a0 3e
       0.67916775 0.581067 0.15286669 0.31321684
000010 5f 2e 34 3e
       0.17595814

conv2.weight f4 [5, 5, 5, 5]
000000 5e 1c 2d be 6b 4c 00 be 93 05 ae bd ee 6a fb bc
       -0.16905352 -0.12529151 -0.08497157 -0.030690636
000010 aa bd 12 3d 2d 2b 06 be 83 7d 57 be ca 71 f0 bd
       0.03582541 -0.13102408 -0.21043973 -0.117404535
000020 27 85 67 be 19 8a 0f be 97 91 42 bd 62 7e 8a ba
       -0.22609387 -0.14017524 -0.047502127 -0.001056623
000030 18 24 7c 3c 66 7b 85 bd 38 9f 82 3c 83 7f 1a 3e
       0.015389465 -0.06517677 0.015945062 0.15087704
000040 4c 78 58 3e 34 de c3 3d 6a 04 a1 3d eb de 0c 3e
       0.2113964 0.09563866 0.0786217 0.13756911
000050 e5 c4 53 3e 0f e2 88 3e 24 a1 a2 3d 8e 74 ad 3d
       0.20680578 0.2673497 0.079408914 0.08469497
000060 cc bd d4 3d b5 3e 41 bd 73 0d 9c 3d ea 33 34 3e
       0.103877634 -0.047178943 0.07619753 0.17597929
000070 84 3e 27 3e aa c8 a5 3d c6 67 93 bc 8d 77 83 be
       0.16332442 0.08094914 -0.017993819 -0.25677148
000080 03 cf d3 bd e8 fc f5 b9 6b f2 b3 bd a9 fa 0c bb
       -0.10342219 -0.0004691847 -0.08786472 -0.002151171
000090 9b 1a 4a be ca 62 21 be 84 3f 42 bc da b9 80 3c
       -0.19736712 -0.15760341 -0.011855964 0.01571362
0000a0 f7 ad c4 bd 7e 73 b2 bd ce 8c f8 bc fd 01 6d 3d
       -0.09603494 -0.08713435 -0.030340578 0.057863224
0000b0 4e 2d 83 3d bb 65 cf bd 9a 58 c0 3d 5f 17 6b 3c
       0.064051256 -0.101268254 0.093918994 0.014348834
0000c0 df 9a d5 bd bd 71 33 be 69 02 4c bd 9a 37 6d 3d
       -0.1042993 -0.17523856 -0.049806986 0.057914354
0000d0 16 5e e9 3c 0e 1c a5 bd bb 32 82 3d 74 18 0d bd
       0.028487246 -0.08061992 0.06357332 -0.03444715
0000e0 df a1 39 3d b5 42 7d 3c 32 68 a8 bd d7 5c 83 bd
       0.045320388 0.015457799 -0.08222999 -0.06414192
0000f0 10 35 9c 3d 6c 4e 52 bd 93 db 02 bd 25 e6 20 bd
       0.07627308 -0.05134432 -0.031947684 -0.039281983
000100 7d 45 ae bc 52 5e 5e 3d c2 a6 ef 3c c4 ac 4c bd
       -0.021273369 0.05428917 0.029254321 -0.04996945
000110 72 04 ea bd 1e b6 b2 3c 41 f3 85 3d a3 3e 81 bd
       -0.11426629 0.021815356 0.065405376 -0.06310775
000120 58 d8 06 be e4 be e7 bd ec 03 24 3c da 8e fc 3c
       -0.13168466 -0.11315706 0.010010701 0.030829836
000130 e4 34 b1 3c f8 cf b0 3b fd bd d7 bc 3c a2 e8 3b
       0.021631666 0.0053958856 -0.02633571 0.007099418
000140 96 76 1f bd 40 8c c7 3d f3 5e 82 3d 06 ac b8 3d
       -0.03893145 0.097435474 0.063657664 0.09017186
000150 8f fc 31 3e 58 27 d8 3d fe 74 b9 3d eb 51 22 be
       0.173815 0.10554379 0.090555176 -0.15851562
000160 d4 ca 26 be 3b 3f 90 bd a1 1f 4f 3d 12 10 29 3d
       -0.1628831 -0.0704331 0.050567273 0.04127509
000170 ba 0f e3 bc 2c 78 33 be 85 1f 08 be 57 79 16 3e
       -0.02771746 -0.1752631 -0.13293274 0.14694725
000180 82 52 82 3d f7 b4 2e bd 94 4e 7a bd 90 b6 7b bd
       0.06363393 -0.04265305 -0.061110094 -0.061453402
000190 6d 8e a5 bd 45 f7 55 3c 27 39 57 bd cd 47 8c 3d
       -0.08083806 0.013059442 -0.05254474 0.068496324
0001a0 c1 2e 2c bd aa 8b 8e bd d3 5a 0e be 0e 4a 5d 3e
       -0.042036775 -0.069602326 -0.13901834 0.21610281
0001b0 d6 98 64 3e d3 7d 4d bd 48 f4 db 3d c6 07 11 3d
       0.22323927 -0.050168823 0.10739952 0.035407804
0001c0 2e 7e 52 ba 9c 5b f8 3d 80 99 08 bd 3a 40 97 bb
       -0.00080296665 0.12126848 -0.033349514 -0.0046158107
0001d0 76 4a 9d 3e ee cc 25 3e 02 a4 e1 3d a2 d1 73 bd
       0.30720872 0.16191456 0.1101761 -0.059526093
0001e0 f0 94 14 3d 12 c2 b3 3d 31 34 0b 3e 42 16 e9 bc
       0.03627485 0.0877725 0.13594128 -0.028452996
0001f0 dc 5f 78 ba 66 f0 97 3d 28 ab 02 3d 6d 57 d7 bd
       -0.00094747334 0.07418899 0.03190151 -0.10514722
000200 43 a6 9d 3d 56 9c 30 3e 79 27 f1 3a ee 57 8a 3d
       0.076977275 0.17247137 0.0018398605 0.067550525
000210 a6 d3 c2 3c eb b9 e9 3c 71 89 07 be b3 56 35 bc
       0.023782562 0.028531035 -0.13236023 -0.011068034
000220 a2 55 77 3d 65 91 3d 3d ea af 3d bd f2 91 7a bd
       0.0603844 0.046281237 -0.046310343 -0.06117434
000230 d0 55 75 bb ac 52 a7 3d 47 ba 97 bc 5d 64 41 bc
       -0.0037435181 0.08170065 -0.018521441 -0.011803714
000240 59 75 2e bd d2 66 a7 bc db 55 b0 3d 09 3e da 3d
       -0.04259238 -0.02043477 0.08610126 0.106563635
000250 a3 fc fb bc d0 d8 d8 bd d4 eb ec 3c 11 d1 ce 3c
       -0.030760115 -0.10588229 0.028921045 0.025246175
000260 51 5f d1 3b 50 9e 2e 3e 78 a8 19 3e c7 1d ec ba
       0.0063895364 0.17052579 0.15005672 -0.0018014245
000270 5c 21 a9 3d 9d 27 59 3d be b1 39 3e 0c a4 d8 bc
       0.08258316 0.053016294 0.1813421 -0.026445411
000280 77 b6 10 bd 9c 63 03 3c 83 fe dc 3d 76 56 1e 3d
       -0.035330262 0.008019354 0.10790732 0.038656674
000290 87 3e 08 3d ce d6 02 3e 72 14 df 3d c4 af a3 3d
       0.033262756 0.12777254 0.108925715 0.07992509
0002a0 a1 08 1a be 06 8e 06 be bc 5b 67 3e ea 06 05 3e
       -0.15042354 -0.13140115 0.22593588 0.12990919
0002b0 02 51 14 3d c0 cc ac be fb 56 01 be 29 59 d8 3c
       0.036210068 -0.33749962 -0.12630837 0.026409702
0002c0 23 e2 c2 3d 43 b0 08 3d e3 5a ca 3c 0f b8 0b bd
       0.095157884 0.03337122 0.024701541 -0.03411108
0002d0 7d 08 16 3e 5e 69 c4 3d 95 17 99 3d 32 17 27 3d
       0.14651676 0.0959041 0.07475201 0.040793605
0002e0 2b 95 52 bd c7 a4 df 3d 46 8f 10 3d e5 1d b1 3d
       -0.05141179 0.10920101 0.035292886 0.0864828
0002f0 ec d3 94 bd f8 f6 86 bd a1 d9 cc bd c1 08 86 bd
       -0.072669834 -0.06590074 -0.10002447 -0.065446384
000300 34 81 01 be a6 68 88 bd ce 5c b6 3c ed f8 d7 bd
       -0.12646943 -0.06660585 0.02226105 -0.10545526
000310 6b b6 f0 bd f6 9b cd bd c7 55 fc 3d a3 f5 10 3e
       -0.117535435 -0.10039513 0.12321048 0.14156203
000320 62 1d be bc 13 34 84 bd ec 6f 10 be 77 e3 d6 bd
       -0.02320737 -0.06455245 -0.14105195 -0.10492604
000330 db ec 09 be db de b9 bd 0b 48 ff bd 6d ed 2f be
       -0.1346926 -0.090757094 -0.12464913 -0.17180414
000340 bd 91 29 be 2e 2b 85 3d c6 17 b9 3d e5 a3 48 3d
       -0.16559501 0.065023765 0.090377375 0.048984427
000350 9d 4f 82 be 72 e9 ff 3c 7d f9 c0 3d d4 10 13 3d
       -0.25451365 0.031239245 0.09422586 0.03590472
000360 ab 67 a9 bd 94 04 30 be 5a 94 b3 bd 6a eb f2 3d
       -0.08271726 -0.17189246 -0.0876853 0.11861308
000370 06 15 1e bd 37 00 22 bd 97 9b 27 be 29 6d 91 bc
       -0.03859427 -0.039550986 -0.16367947 -0.017752247
000380 1f 44 ff 3d f2 59 6d bd 13 5f 0f 3d a5 50 51 3c
       0.12464165 -0.057947107 0.03500278 0.012775575
000390 ed b3 21 be b0 78 79 be 03 65 a2 bd 70 a1 02 3b
       -0.15791292 -0.24362445 -0.07929423 0.001993265
0003a0 02 e4 7b bd 92 35 c7 bd 29 ee 03 be 4c ce 99 3d
       -0.061496742 -0.097270146 -0.1288382 0.07510051
0003b0 e4 2c 37 bd e5 d0 d5 bd e7 3f 23 be 27 21 9a bc
       -0.044720545 -0.10440234 -0.15942346 -0.018814636
0003c0 ca b2 c8 3d 9c 69 08 3d ad 47 c7 bd 64 2a 8c bd
       0.09799726 0.033303842 -0.09730468 -0.06844023
0003d0 94 db f5 3d 83 1c 26 3c da 99 8b bd 3a 9f 2a be
       0.12004772 0.010138634 -0.06816454 -0.16662303
0003e0 71 d9 f8 bd 71 87 ce 3d 14 f1 09 bd 7f 21 9f 3d
       -0.12150849 0.10084427 -0.033677176 0.07770061
0003f0 bf 05 fc 3c d6 75 a8 3d e4 b5 ad 3d 95 00 c4 bc
       0.030764459 0.082256004 0.084819585 -0.023926059

conv2.bias f4 [5]
000000 f1 e1 14 3e 7f cf d6 bc 30 4a 54 bd c9 a0 2b be
       0.14539315 -0.026221989 -0.051828563 -0.16760553
000010 1e 5e fc 3d
       0.12322639

bn2.weight f4 [5]
000000 0f 7e 90 3f 93 ce 60 3f 57 dc 72 3f ff 17 7b 3f
       1.128847 0.8781521 0.9486746 0.9808349
000010 92 92 85 3f
       1.0435355

bn2.bias f4 [5]
000000 58 dd 3a bd e0 7d 0a be e1 88 f9 3d 22 2b 5b be
       -0.045621246 -0.1352458 0.12184311 -0.21403173
000010 c0 f9 d9 3b
       0.006652087

bn2.running_mean f4 [5]
000000 48 59 29 3f 59 41 0c 3f fa 79 eb 3e 18 9a c7 3e
       0.6615186 0.5478721 0.45991498 0.38984752
000010 b7 dd 60 3f
       0.8783831

bn2.running_var f4 [5]
000000 36 2b f3 3f d8 28 a9 3f 13 74 aa 3f 44 23 ed 3e
       1.8997562 1.321559 1.3316673 0.46315968
000010 56 53 26 40
       2.5988364

conv3.weight f4 [10, 5, 5, 5]
000000 6b f3 d7 bd 9a 53 3a 3d 4d 9c b8 3c a4 f1 4f 3d
       -0.10544475 0.045489885 0.022535468 0.050767556
000010 9f 31 93 bb c1 3d 94 3d 3c 01 17 3e 42 19 12 3e
       -0.0044919993 0.07238341 0.14746565 0.14267448
000020 1c c1 68 3d 91 28 2e bc e2 db 8c 3d 94 a9 cb 3b
       0.05682479 -0.010629789 0.06877877 0.0062152836
000030 0a 60 54 be 19 b0 10 3d 79 9b ad bd 87 95 5e bd
       -0.20739761 0.03532419 -0.0847692 -0.05434182
000040 53 2f de bd f2 42 ed bd 28 a9 f7 bd bc ae 63 bc
       -0.1084887 -0.115850344 -0.12092811 -0.01389664
000050 7f 25 f2 bc b2 26 05 3e 18 6a 7b bc 90 4e 8d bc
       -0.029558895 0.13003042 -0.015345119 -0.017249376
000060 b5 f5 f7 3d 19 65 3b 3d 7e 3c 13 be 45 d1 33 3c
       0.12107412 0.04575071 -0.14378545 0.010975187
000070 27 0a d3 3d de 0a d2 3d 79 ed 94 bc af c0 b2 3d
       0.10304671 0.10255979 -0.018179642 0.08728158
000080 1c fa ea 3d 11 1e f1 3d 9f de c5 3d 7f f4 07 be
       0.11473486 0.11773313 0.09661602 -0.13276862
000090 69 64 7d bc 10 19 5e bd ad 44 02 3d 74 7d 07 3d
       -0.015465834 -0.05422312 0.031803776 0.033078626
0000a0 30 55 d4 3c b4 47 d5 bd b5 ab 41 be 60 ca ff 3d
       0.025919527 -0.10414067 -0.18913157 0.12489772
0000b0 c6 0b a9 3d b3 92 e6 3d c2 79 b0 be c3 88 83 3d
       0.08254199 0.112584494 -0.34467894 0.064225696
0000c0 06 b6 4d 3d 5e a4 87 3d 3c 7b 57 bd 6d 25 6f be
       0.05022242 0.066231474 -0.05260776 -0.2335412
0000d0 01 22 f7 bd aa 82 fc bc d6 a8 e3 bc 1c 57 02 3e
       -0.120670326 -0.030824024 -0.027790468 0.12728542
0000e0 f9 0b f5 bd 00 43 4b bd 13 76 80 3d ae 09 76 ba
       -0.11965174 -0.049624443 0.06272521 -0.00093855977
0000f0 23 60 7e bd 01 a2 aa bd 82 89 89 3d 84 5e ab 3d
       -0.062103402 -0.08331681 0.06715681 0.08367637
000100 7d 2f 20 be 1e ef cd bd b1 13 87 3d 09 fc 83 3c
       -0.15643115 -0.100553736 0.06595553 0.01611139
000110 db 2a ac 3d ae ef 9d bc 74 02 37 3e a7 1a 92 3d
       0.084066115 -0.019279327 0.1787203 0.0713399
000120 c5 46 57 bd 44 93 c8 bc 0b 43 94 3c 73 8b 8f bd
       -0.052557725 -0.024484284 0.018098375 -0.0700902
000130 2e 79 68 be 1b df b7 bd fe cb 31 3e 13 d5 62 3e
       -0.22702476 -0.08978101 0.17362973 0.22151594
000140 07 8f 31 3d 0a 8e 20 3e ef b6 6d 3e 41 40 fc 3d
       0.043349292 0.15679184 0.23214315 0.12316943
000150 b1 a2 cb bc cb c8 88 3d 3b ba af 3d de dd 7a 3d
       -0.02485785 0.06678923 0.085804425 0.061246745
000160 61 ac 84 3d 0f da 7b 3d c0 60 98 be 37 0f 3a bd
       0.06478191 0.061487254 -0.29761314 -0.045424666
000170 ef 20 9a bd 25 a5 14 3d 23 31 f5 3c c6 35 a5 bd
       -0.07525813 0.036290307 0.029930657 -0.08066897
000180 b5 d9 b0 3d 97 84 1b 3d 4a 89 e2 bd 8e cd 23 3e
       0.08635274 0.037968244 -0.11061342 0.15996382
000190 c2 0b 72 be 86 a5 44 be 95 96 ad 3d fc 78 88 3e
       -0.23637298 -0.19203767 0.08475987 0.26654804
0001a0 45 ec a8 3d 77 5d 07 3c ea c5 22 3e 71 63 ce bd
       0.0824819 0.00826203 0.1589581 -0.10077561
0001b0 8b 25 69 3c 50 9b e2 bd 72 d3 a3 3d cd 1e aa 3c
       0.014230142 -0.1106478 0.07999314 0.02076664
0001c0 44 b7 64 3d 0c 50 64 3d 60 57 19 be 82 16 61 bd
       0.05583884 0.0557404 -0.14974737 -0.054953106
0001d0 76 5c d7 bd 67 88 ec bd 4c 34 9f bd da 12 3d bd
       -0.105156824 -0.11549454 -0.07773647 -0.046160556
0001e0 2a 20 e9 3d f1 d1 97 bb 14 ec cb bd 21 d8 24 bc
       0.11383088 -0.0046331813 -0.09957138 -0.010061295
0001f0 f9 93 68 3c cc 6f 5a bd 62 7f 7f be 3b 3c 8d bd
       0.014195436 -0.053329274 -0.24950936 -0.06896254
000200 de 16 1c 3e fa 6d cf 3d f6 3f b6 3d 78 5e a7 bd
       0.15243098 0.10128398 0.08898918 -0.08172315
000210 6c e7 11 3d a0 4f a3 bd 44 5f 61 be de 80 6e 3e
       0.03562109 -0.07974172 -0.22008997 0.23291346
000220 2f a7 69 3e 4d 30 9e bd 81 1f 1c be 47 1f 0e be
       0.22817682 -0.077240564 -0.15246393 -0.13879119
000230 f4 06 c7 bd e4 31 78 bd cb 4c 04 bd d4 9f 35 3e
       -0.09718123 -0.060594454 -0.032299798 0.17736751
000240 eb 22 f0 3d 38 4d bf bd 30 39 7a bd f4 fc 13 be
       0.1172541 -0.093409 -0.061089694 -0.14451963
000250 bf 8c 03 3c 8c 38 f8 3d 09 4b 03 bd 43 8e 29 bc
       0.008029162 0.121201605 -0.03205398 -0.010348859
000260 17 fe dd 3d 33 5b c9 3d 2c fc a1 bc 67 36 b3 bd
       0.108394794 0.09831848 -0.019773565 -0.08750611
000270 ba 1c 45 bd 6f 6e 2f 3d 7f 45 c7 bd 41 ee f9 bd
       -0.0481231 0.042829927 -0.09730052 -0.122036465
000280 a4 35 a0 bd 25 a0 90 bc 1d 57 51 3e 73 f4 01 be
       -0.07822731 -0.017654488 0.20443387 -0.12690906
000290 a2 a8 dd bc 07 da 00 be 03 74 8c 3d 37 3e 7d 3e
       -0.02705795 -0.12583171 0.06858065 0.24730764
0002a0 df 05 88 3d 75 ca e3 bc a6 26 2b be ae 7e b7 bc
       0.06641745 -0.0278065 -0.16713962 -0.022399273
0002b0 32 90 0b bd f4 cb de bd 4e ba d9 bd d1 88 ec 3d
       -0.034073062 -0.10878745 -0.10631238 0.11549533
0002c0 33 35 1a 3e ae 90 3f 3d 00 81 83 bd 04 69 14 be
       0.15059356 0.046768837 -0.06421089 -0.14493185
0002d0 0d 62 da 3c 9b a6 c6 3d b4 5a 30 3d 93 4f 89 3c
       0.026658082 0.09699746 0.04305525 0.016761577
0002e0 54 45 3f ba 98 d3 df bd 45 9e d5 bd a8 d7 ef bd
       -0.00072964025 -0.1092903 -0.10430578 -0.11711055
0002f0 e3 75 b9 bd 50 35 37 3e 0f d9 e4 bd 0a 41 40 bc
       -0.09055688 0.17891431 -0.11174213 -0.0117342565
000300 43 10 95 bd db 41 f2 bd bb 2b 04 3c 23 ff fd bb
       -0.07278492 -0.11828967 0.008067067 -0.007751362
000310 4b f0 33 bd 8c f3 ff bd 25 0e eb bc 10 e9 80 bd
       -0.043930333 -0.12497625 -0.028693268 -0.06294453
000320 f3 bb df 3d e5 ab 6b 3b b4 6f e0 3d eb 28 a8 3d
       0.1092452 0.0035960611 0.10958806 0.082109295
000330 b3 68 3d 3d 5a f7 0a bc f7 1e 12 bd b6 ff fe 3d
       0.046242427 -0.008481825 -0.03567406 0.12451117
000340 2a 3c 3d 3e d0 83 8f 3d 83 36 56 bd e4 8c 83 3d
       0.18479982 0.07007563 -0.05229808 0.06423357
000350 d6 ff cc bc 11 08 a7 bb 79 41 83 3d 31 57 82 bc
       -0.025024336 -0.005097397 0.06408972 -0.015910717
000360 68 d2 0e bd 36 b9 cc 3d ba 3a 1f bd c5 44 06 be
       -0.034868628 0.09996264 -0.038874365 -0.13112171
000370 5b d8 56 be 3e 77 0c be 73 86 cb 3d ac 4b c5 3d
       -0.2098097 -0.13717362 0.099377535 0.09633574
000380 fc 9b 40 3e b0 8b d4 3d a0 32 a1 bd 9f 86 cd bc
       0.18809503 0.10378206 -0.07870984 -0.025088606
000390 4b 58 91 3c 92 ee d7 bd c8 6a b2 bd 61 89 cb bd
       0.017742297 -0.105435506 -0.08711773 -0.09938312
0003a0 57 6c 61 bd 0a d2 06 bd 41 8a 07 3e 1a 4f 8d 3c
       -0.05503496 -0.032915153 0.13236333 0.017249633
0003b0 c1 0f 16 be 58 86 41 3d 6d 82 84 3c af d1 83 bc
       -0.14654447 0.04724726 0.016175473 -0.016091196
0003c0 d2 59 66 3c 55 83 ec 3d c4 d6 6f 3c 98 36 8c be
       0.014059501 0.11548487 0.014638606 -0.27385402
0003d0 2a 9c 5c bd b7 73 89 3b 97 91 c2 bc 58 e2 a5 bc
       -0.053859867 0.0041947025 -0.023751063 -0.02024953
0003e0 e2 6d f8 3c f8 45 17 3e 88 0c 2f 3d 44 05 a3 bd
       0.030325834 0.14772785 0.04273656 -0.07959989
0003f0 20 4a 42 bd f9 77 27 3e f1 20 ba bd a0 6a 19 bd
       -0.047433972 0.1635436 -0.09088314 -0.0374552

conv3.bias f4 [10]
000000 bd 22 0c 3e 43 d7 b4 3d 72 99 35 3e 08 16 1a 3e
       0.13685127 0.088301204 0.17734316 0.15047467
000010 e3 e1 12 3d ef c3 9e 3d b7 52 3a 3e e3 ad a5 3d
       0.035859954 0.07752215 0.18195616 0.08089807
000020 22 16 0a 3e 4f be b4 bd
       0.13485005 -0.08825361

bn3.weight f4 [10]
000000 7b 23 72 3f 8e 7d 70 3f da 5f 6b 3f fd 02 73 3f
       0.9458539 0.9394158 0.9194313 0.94926435
000010 ed cb 78 3f ad 52 80 3f ea 7a 68 3f ff e6 63 3f
       0.97186166 1.0025231 0.9081255 0.8902435
000020 8c 23 7a 3f 9c aa 8d 3f
       0.9771049 1.1067691

bn3.bias f4 [10]
000000 2d 2c 16 3e 24 8b 55 3e 1f cb d3 3d 5d 83 94 3d
       0.14665289 0.20853859 0.10341477 0.07251618
000010 10 ee 1a 3e a8 5e f7 3d 02 2b d3 3d 51 93 84 3d
       0.15129876 0.12078601 0.103109375 0.06473411
000020 94 6a dc 3d de 7f 53 3e
       0.10762516 0.20654246

bn3.running_mean f4 [10]
000000 a4 ee 10 3f d7 9c be 3e 10 f6 08 3f 89 68 04 3f
       0.56614137 0.37229034 0.5350046 0.5172201
000010 86 66 fe 3e 38 c7 9a 3e 52 79 d3 3e ab f7 c6 3e
       0.49687594 0.30230117 0.41303498 0.3886083
000020 87 3e 67 3e 63 74 19 3f
       0.22582446 0.5994322

bn3.running_var f4 [10]
000000 5c a1 38 3f 21 6c e2 3e 95 31 41 3f 88 c1 10 3f
       0.72121215 0.4422312 0.7546628 0.56545305
000010 46 8c 2a 3f 17 c3 f0 3e 44 63 fb 3e ac b1 f3 3e
       0.6662029 0.47023842 0.4909917 0.4759649
000020 14 2b 98 3e 44 cb 61 3f
       0.29720366 0.88200784

fc1.weight f4 [10, 490]
000000 c9 56 30 be 46 8d e6 bd b7 65 e1 3c ac 9e 11 bb
       -0.17220606 -0.112574145 0.027514322 -0.002221982
000010 1f 52 2b 3c 1c 13 1c 3c 2a e8 8a be 0b 13 da 3d
       0.010456591 0.00952604 -0.27130252 0.106481634
000020 a1 fa 2c bd d6 e0 f1 bd 9a aa fe 3d c6 40 47 3e
       -0.042231206 -0.11810462 0.124348834 0.19458303
000030 65 61 9f bd 87 0a 6c be f7 b2 bc 3d 89 32 dd bc
       -0.077822484 -0.23050891 0.09213822 -0.027001636
000040 cd 5e cb bd 9e 39 f5 3d 42 45 16 3d d1 ce 09 be
       -0.09930191 0.1197388 0.036687143 -0.134578
000050 9c 2d dc 3d b9 10 65 3d 15 f6 de 3d 94 60 37 39
       0.10750887 0.05592415 0.1088678 0.00017488218
000060 ef 18 16 3e 82 43 d4 bb 7c 6e 50 3c d0 54 a1 3d
       0.14657949 -0.006477774 0.012721654 0.07877505
000070 32 a8 9e 3d 1d 78 72 bd 0e f8 fb bd 37 27 9f bd
       0.077469245 -0.05919658 -0.12303172 -0.077711515
000080 66 ce 36 bd 31 a5 a2 bd bb 56 34 bd d6 9f 24 be
       -0.04463043 -0.07941664 -0.044028025 -0.16076598
000090 e3 ec ab bd 05 44 db bd b3 56 9b 3d 47 e4 da 3c
       -0.08394792 -0.10706333 0.07584896 0.02672018
0000a0 b9 36 d6 bc d9 5b b4 bd 76 7e 10 be c2 d0 c9 bd
       -0.02614914 -0.08806581 -0.14110741 -0.098542705
0000b0 37 4b 86 bd 17 c6 a4 3d be 56 d8 3d de a7 13 3e
       -0.06557315 0.08045595 0.1056342 0.14419505
0000c0 84 18 11 3e b8 d2 35 bd ba a2 85 bb a6 96 2b 3d
       0.14169508 -0.04439041 -0.0040782364 0.041891716
0000d0 94 19 3b bc 9e 40 d8 bd b7 ed 13 bd 98 b4 8f 3d
       -0.0114196725 -0.105592 -0.036115374 0.070168674
0000e0 12 24 61 be 96 ef c1 3d b5 07 58 3c 30 d9 1d be
       -0.21986416 0.094695255 0.013185431 -0.15414882
0000f0 ce f7 8d bd aa c9 9e 3c b8 b1 c2 3d 4b 62 b2 be
       -0.069320306 0.01938327 0.095065534 -0.34840617
000100 66 00 f1 3b 78 01 3d 3d 28 f3 5b bd e4 dc 18 bd
       0.007354784 0.04614398 -0.05369869 -0.037320033
000110 dd 62 2c bc be 74 14 3d 27 02 27 bd 71 60 47 bd
       -0.010521618 0.036244147 -0.040773537 -0.048675958
000120 25 67 26 3d 3b 28 96 bd 16 b2 bf bd 42 3e 85 bd
       0.04062571 -0.07331892 -0.09360139 -0.06506015
000130 a8 12 2e be 91 47 02 bd ad 9e 95 bd cd 9b 86 bd
       -0.16999304 -0.031806532 -0.07305656 -0.065726854
000140 b1 e1 64 bb 05 ca a8 3d 25 3e f3 3d 41 3b 58 bd
       -0.0034924562 0.08241657 0.118770875 -0.052790884
000150 94 f0 a4 bd 4a 87 9e bd f2 e1 75 ba 86 c6 8f bd
       -0.08053699 -0.07740648 -0.0009379677 -0.07020287
000160 41 c7 b7 3d eb 50 8f 3d 30 db 4e 3d 5c 6a c1 3d
       0.089735515 0.06997856 0.050502002 0.094441146
000170 42 cd 25 3d c7 e9 88 3d 81 09 dd 3d f3 fb eb bd
       0.040478952 0.066852145 0.10792828 -0.11522665
000180 f9 bf 47 be 46 b6 10 be 82 5f 1a 3b c9 6b 89 3d
       -0.19506826 -0.14132032 0.0023555462 0.067100115
000190 27 c0 94 3d 3c 5a 34 b9 86 ba 66 bd a5 4f a0 be
       0.07263213 -0.00017199753 -0.056330226 -0.31310764
0001a0 33 b6 08 bd da 81 d8 3d fc 5a b1 3d 08 6d 48 bd
       -0.033376884 0.10571642 0.08659932 -0.048932105
0001b0 e1 4d 89 bc 1d 71 93 3c 99 f8 38 bd 11 a5 b2 bd
       -0.016760768 0.017998273 -0.045158956 -0.0872289
0001c0 d0 0c fa bc 5c 65 88 3d b5 5d 1d be 60 85 51 3d
       -0.030523688 0.06659958 -0.15367778 0.051152587
0001d0 43 90 22 3d ed d4 79 3d 36 56 93 be 6c 6c 88 bd
       0.03968836 0.060994077 -0.2877671 -0.06661305
0001e0 80 c6 f0 bd 5f 0e d3 bc d9 37 97 bd 97 ea 08 3d
       -0.11756611 -0.025763689 -0.07383699 0.033426847
0001f0 85 dc e2 bc c8 78 7f bd ac f7 28 bd b8 60 11 bd
       -0.027693043 -0.062371045 -0.041251823 -0.03549263
000200 3a 79 55 3d c3 9c 7a bd f8 d8 01 be b7 d0 0f 3d
       0.052117564 -0.061184656 -0.12680423 0.035111155
000210 64 b8 a9 3d fd 84 33 bd 0a 01 27 bc 7f 37 7c 3d
       0.08287123 -0.043828 -0.010193119 0.061576363
000220 a2 4b 65 bd b6 44 aa bd ed 4b 1c be 5e 66 ad bc
       -0.055980332 -0.08313887 -0.15263338 -0.021166977
000230 77 56 ea 3d cf ac 9b 3d 92 27 88 3c 72 00 82 3d
       0.11442273 0.0760132 0.016620431 0.06347741
000240 0c b9 ee bd a2 e5 59 bd e1 62 4f 3c d9 60 d4 bd
       -0.11656389 -0.05319751 0.012657852 -0.10370035
000250 2c 65 08 bc 06 fb 8f 3d 86 06 20 bc f2 2f e6 bd
       -0.0083249025 0.07030301 -0.00976718 -0.112396136
000260 ae 53 62 bd bf d6 3d 3c 26 7b b5 3d f9 82 62 3b
       -0.055255584 0.011586844 0.08861379 0.003456293
000270 97 dc 62 3d fb db 20 bd 4f 86 59 be 6b f5 73 be
       0.055386152 -0.03927229 -0.21242641 -0.23824088
000280 8c 03 4f be ac 3d 8a 3b ee 41 24 bb ef 9c f7 3c
       -0.20216197 0.0042187776 -0.0025063711 0.030226199
000290 60 8e 89 3d 0f 5b 81 bd 46 2c e6 bd 34 f8 c0 bd
       0.06716609 -0.06316196 -0.11238913 -0.09422341
0002a0 7b 8d c8 bd 3f 93 b8 3a 37 73 c4 ba 9f 44 18 3d
       -0.0979261 0.0014081969 -0.001498795 0.037174817
0002b0 d1 5a 92 3c 6f 4b 1c 3c 8a e5 18 3e 50 03 de bd
       0.01786557 0.009539469 0.14931312 -0.108404756
0002c0 61 60 ec bd ae ca 15 be 5b c8 cc bc f0 39 70 3c
       -0.1154182 -0.14628097 -0.02499788 0.014662251
0002d0 c8 a4 74 3d 75 af ca 3d 7f 50 44 be a7 ab a5 bc
       0.05972746 0.09896747 -0.19171332 -0.020223452
0002e0 4d 20 ba bc 31 68 dd ba 50 d3 51 be 2b 01 a7 3d
       -0.02272048 -0.0016892013 -0.20490766 0.0815452
0002f0 ac b8 90 3c 46 83 1c bc 81 db e0 3c 3a f7 3b 3d
       0.017666183 -0.009552782 0.027448418 0.04589007
000300 c6 c3 3f 3c b7 40 13 bd d0 de 5c bc 7a 2d 9d bd
       0.011704391 -0.03595039 -0.013480857 -0.076746896
000310 17 7f 09 be e3 d3 f6 bd f4 1f 2f 3d ec 7b 30 3d
       -0.13427387 -0.12052133 0.042755082 0.04308693
000320 25 20 98 3d a3 d1 99 3d 24 1b d0 3d 60 5d 09 3d
       0.07428006 0.07510688 0.10161427 0.033536315
000330 4b 47 d0 3d bd 82 fc 3b 50 3a 6b bd ea ee e7 bb
       0.10169848 0.007706015 -0.057428658 -0.0070780413
000340 c2 6b 8f 3d 68 04 3e bd 36 f2 de 3d d0 89 73 3d
       0.07002975 -0.04639092 0.10886042 0.0594576
000350 d2 f1 97 3c f2 2c 9d bc 6c 90 c2 bd 0e c1 2b bd
       0.018547926 -0.01918647 -0.095002025 -0.04193216
000360 a6 c5 ba 3d 5f 12 bb 3d 93 0e d3 3d 3a e8 51 bd
       0.0911973 0.091343634 0.10305514 -0.05124686
000370 01 98 a2 3c 78 77 41 bd 0d f8 1b bd 6a 0e b6 3d
       0.019847872 -0.047233075 -0.038078357 0.08889468
000380 82 3c 2c 3e b4 5c 3d bb 83 c8 77 bd b2 c4 46 be
       0.16819957 -0.0028894367 -0.060493957 -0.19410971
000390 78 ad 9d bd b7 26 67 3d cf 39 86 3d 88 c6 f7 3d
       -0.07699102 0.056433406 0.06553995 0.12098414
0003a0 4f 7c bd bd 04 c8 c5 3b 5e e2 a8 bc 83 88 10 3e
       -0.092522256 0.0060358066 -0.020615753 0.14114575
0003b0 bd 74 f3 3d 2f 06 89 be b3 d5 21 3e d3 c9 86 3d
       0.118875004 -0.2676253 0.15804176 0.06581464
0003c0 b0 0b 3d 3d 95 18 2c 3c 06 ed d2 3d 29 5a 04 3e
       0.046153724 0.010503908 0.10299115 0.12925018
0003d0 2c 9f e3 bd 6f 43 1d 3d ca 0e d4 3d 2f 33 64 3c
       -0.11114344 0.038394388 0.10354383 0.013928219
0003e0 c1 75 50 3e b2 52 01 3d 57 2f 68 3d 63 50 70 3c
       0.2035742 0.031573005 0.05668577 0.014667603
0003f0 0e 7d d2 bd 44 51 4f bd 12 e1 20 be c8 30 da bc
       -0.102777585 -0.05061461 -0.15710858 -0.026634589

fc1.bias f4 [10]
000000 a8 03 0b be 99 69 58 3b 01 19 2e 3e 06 14 19 bc
       -0.13575613 0.0033021925 0.17001726 -0.009343153
000010 c0 75 fd 38 d1 9f 3b 3d 0e b7 2b be 54 98 0d 3e
       0.00012085913 0.04580671 -0.16769049 0.1382764
000020 fd 12 48 3d 4c c8 7d bd
       0.048846234 -0.061958596
